…
    for(int i = 0; i < samples; i++)
    {
        float closestDepth = texture(cubeMap, fragToLight + gridSamplingDisk[i] * diskRadius).r;
        closestDepth *= farPlane;   // undo mapping [0;1]
        if((currentDepth - bias) > closestDepth){
            shadow += 1.0;
        }
    }
    shadow /= float(samples);
    return shadow;
}

***
"ERROR: 0:1: '' :  version '330' is not supported\nERROR: 0:1: '' : syntax error: #version\nERROR: 0:108: '(' : syntax error: Array size must appear after variable name\n"
Actor(
  (backbones): Backbones(
    (hidden): ModuleList(
      (0): Sequential(
        (0): Linear(in_features=7, out_features=8, bias=True)
        (1): ReLU(inplace=True)
      )
      (1): Sequential(
        (0): Linear(in_features=7, out_features=8, bias=True)
        (1): ReLU(inplace=True)
      )
      (2): Sequential(
        (0): Linear(in_features=2, out_features=8, bias=True)
        (1): ReLU(inplace=True)
      )
      (3): Sequential(
        (0): Linear(in_features=6, out_features=8, bias=True)
        (1): ReLU(inplace=True)
      )
      (4): Sequential(
        (0): Linear(in_features=1, out_features=8, bias=True)
        (1): ReLU(inplace=True)
      )
      (5): Sequential(
        (0): Linear(in_features=3, out_features=8, bias=True)
        (1): ReLU(inplace=True)
      )
    )
    (cnn_tail): ModuleList()
  )
  (fc_body): Sequential(
    (0): Linear(in_features=48, out_features=128, bias=True)
    (1): LeakyReLU(negative_slope=0.01, inplace=True)
    (2): Linear(in_features=128, out_features=64, bias=True)
    (3): LeakyReLU(negative_slope=0.01, inplace=True)
    (4): Linear(in_features=64, out_features=8, bias=True)
    (5): Tanh()
  )
)
Critic(
  (backbones): Backbones(
    (hidden): ModuleList(
      (0): Sequential(
        (0): Linear(in_features=7, out_features=8, bias=True)
        (1): ReLU(inplace=True)
      )
      (1): Sequential(
        (0): Linear(in_features=7, out_features=8, bias=True)
        (1): ReLU(inplace=True)
      )
      (2): Sequential(
        (0): Linear(in_features=2, out_features=8, bias=True)
        (1): ReLU(inplace=True)
      )
      (3): Sequential(
        (0): Linear(in_features=6, out_features=8, bias=True)
        (1): ReLU(inplace=True)
      )
      (4): Sequential(
        (0): Linear(in_features=1, out_features=8, bias=True)
        (1): ReLU(inplace=True)
      )
      (5): Sequential(
        (0): Linear(in_features=3, out_features=8, bias=True)
        (1): ReLU(inplace=True)
      )
    )
    (cnn_tail): ModuleList()
  )
  (fc_body): Sequential(
    (0): Linear(in_features=48, out_features=128, bias=True)
    (1): LeakyReLU(negative_slope=0.01, inplace=True)
  )
  (critic_body): Sequential(
    (0): Linear(in_features=136, out_features=64, bias=True)
    (1): LeakyReLU(negative_slope=0.01, inplace=True)
    (2): Linear(in_features=64, out_features=1, bias=True)
  )
)
Episode 1	Exploration: 0.949000	Average Score: -1.58	Current Score: -1.58	Actor Loss: 0.00e+00	Critic Loss: 0.00e+00
Episode 2	Exploration: 0.948000	Average Score: -1.30	Current Score: -1.01	Actor Loss: 0.00e+00	Critic Loss: 0.00e+00
Episode 3	Exploration: 0.947000	Average Score: -1.42	Current Score: -1.66	Actor Loss: 1.26e+00	Critic Loss: 1.71e-01
…
