…
"ERROR: 0:1: '' :  version '330' is not supported\nERROR: 0:1: '' : syntax error: #version\nERROR: 0:108: '(' : syntax error: Array size must appear after variable name\n"
/home/zhenwang/code/git/robotics/PyRep/pyrep/pyrep.py:209: UserWarning: Could not change simulation timestep. You may need to change it to "custom dt" using simulation settings dialog.
  warnings.warn('Could not change simulation timestep. You may need '
/home/zhenwang/software/anaconda3/envs/robotics/lib/python3.7/site-packages/gym/logger.py:30: UserWarning: [33mWARN: Box bound precision lowered by casting to float32[0m
  warnings.warn(colorize('%s: %s'%('WARN', msg % args), 'yellow'))
Actor(
  (backbones): Backbones(
    (hidden): ModuleList(
      (0): Sequential(
        (0): Linear(in_features=7, out_features=32, bias=True)
        (1): ReLU(inplace=True)
      )
      (1): Sequential(
        (0): Linear(in_features=7, out_features=32, bias=True)
        (1): ReLU(inplace=True)
      )
      (2): Sequential(
        (0): Linear(in_features=3, out_features=32, bias=True)
        (1): ReLU(inplace=True)
      )
    )
    (cnn_tail): ModuleList()
  )
  (fc_body): Sequential(
    (0): Linear(in_features=96, out_features=128, bias=True)
    (1): LeakyReLU(negative_slope=0.01, inplace=True)
    (2): Linear(in_features=128, out_features=128, bias=True)
    (3): LeakyReLU(negative_slope=0.01, inplace=True)
    (4): Linear(in_features=128, out_features=8, bias=True)
    (5): Tanh()
  )
)
Critic(
  (backbones): Backbones(
    (hidden): ModuleList(
      (0): Sequential(
        (0): Linear(in_features=7, out_features=32, bias=True)
        (1): ReLU(inplace=True)
      )
      (1): Sequential(
        (0): Linear(in_features=7, out_features=32, bias=True)
        (1): ReLU(inplace=True)
      )
      (2): Sequential(
        (0): Linear(in_features=3, out_features=32, bias=True)
        (1): ReLU(inplace=True)
      )
    )
    (cnn_tail): ModuleList()
  )
  (fc_body): Sequential(
    (0): Linear(in_features=96, out_features=128, bias=True)
    (1): LeakyReLU(negative_slope=0.01, inplace=True)
  )
  (critic_body): Sequential(
    (0): Linear(in_features=136, out_features=64, bias=True)
    (1): LeakyReLU(negative_slope=0.01, inplace=True)
    (2): Linear(in_features=64, out_features=1, bias=True)
  )
)
Traceback (most recent call last):
  File "single_task_rl_ddpg.py", line 109, in <module>
    agent.load()
  File "/home/zhenwang/code/git/robotics/RLBench/examples/ddpg/ddpg_agent.py", line 209, in load
    self.actor_local.load_state_dict(torch.load("checkpoints/checkpoint_actor.pth"))
  File "/home/zhenwang/software/anaconda3/envs/robotics/lib/python3.7/site-packages/torch/serialization.py", line 419, in load
…
